…
      "batch_normalization_22 (BatchNo (None, 3, 28, 78, 16 64          conv3d_28[0][0]                  \n",
      "__________________________________________________________________________________________________\n",
      "conv3d_29 (Conv3D)              (None, 1, 12, 37, 24 28824       batch_normalization_22[0][0]     \n",
      "__________________________________________________________________________________________________\n",
      "batch_normalization_23 (BatchNo (None, 1, 12, 37, 24 96          conv3d_29[0][0]                  \n",
      "__________________________________________________________________________________________________\n",
      "conv3d_30 (Conv3D)              (None, 1, 5, 18, 32) 6944        batch_normalization_23[0][0]     \n",
      "__________________________________________________________________________________________________\n",
      "batch_normalization_24 (BatchNo (None, 1, 5, 18, 32) 128         conv3d_30[0][0]                  \n",
      "__________________________________________________________________________________________________\n",
      "dropout_16 (Dropout)            (None, 1, 5, 18, 32) 0           batch_normalization_24[0][0]     \n",
      "__________________________________________________________________________________________________\n",
      "conv3d_31 (Conv3D)              (None, 1, 3, 16, 64) 18496       dropout_16[0][0]                 \n",
      "__________________________________________________________________________________________________\n",
      "batch_normalization_25 (BatchNo (None, 1, 3, 16, 64) 256         conv3d_31[0][0]                  \n",
      "__________________________________________________________________________________________________\n",
      "dropout_17 (Dropout)            (None, 1, 3, 16, 64) 0           batch_normalization_25[0][0]     \n",
      "__________________________________________________________________________________________________\n",
      "flattened (Flatten)             (None, 3072)         0           dropout_17[0][0]                 \n",
      "__________________________________________________________________________________________________\n",
      "dense_6 (Dense)                 (None, 50)           153650      flattened[0][0]                  \n",
      "__________________________________________________________________________________________________\n",
      "dropout_18 (Dropout)            (None, 50)           0           dense_6[0][0]                    \n",
      "__________________________________________________________________________________________________\n",
      "angle_out (Dense)               (None, 15)           765         dropout_18[0][0]                 \n",
      "__________________________________________________________________________________________________\n",
      "throttle_out (Dense)            (None, 1)            51          dropout_18[0][0]                 \n",
      "==================================================================================================\n",
      "Total params: 210,490\n",
      "Trainable params: 210,218\n",
      "Non-trainable params: 272\n",
      "__________________________________________________________________________________________________\n"
     ]
    }
   ],
   "source": [
…
    "throttle_out_loss: 0.0649 - val_loss: 0.8818 - val_angle_out_loss: 0.9788 - val_throttle_out_loss: 0.0893\n",
    "Epoch 00019: early stopping\n",
    "\n",
    "Basic conv3D model: pilot_conv3D with rmsprop and no activation \n",
    "Original CNN -> TimeDistributed -> conv3D -> Flatten -> 1 Dense\n",
    "241/241 [==============================] - 154s 641ms/step - loss: 0.6136 - angle_out_loss: 0.6812 -\n",
    "throttle_out_loss: 0.0546 - val_loss: 0.7844 - val_angle_out_loss: 0.8709 - val_throttle_out_loss: 0.0511\n",
    "\n",
    "All conv3D model: pilot_Allconv3D with adam\n",
    "Con3D strides=(1, 2, 2): 24, (1, 5, 5) -> 32, (1, 5, 5) -> 64, (1, 5, 5) -> 64, (1, 3, 3) -> strides=(1, 1, 1): 64, (3, 3, 3) -> \n",
    "batchnorm -> flatten -> dense\n",
    "At least\n",
    "241/241 [==============================] - 140s 582ms/step - loss: 0.3661 - \n",
    "angle_out_loss: 0.4063 - throttle_out_loss: 0.0394 - val_loss: 0.6101 -\n",
    "val_angle_out_loss: 0.6775 - val_throttle_out_loss: 0.0350\n",
    "\"\"\""
   ]
  },
  {
   "cell_type": "code",
   "execution_count": 68,
   "metadata": {},
   "outputs": [
…
